…
	/home/juebrauer/data_jb/datasets/imagewoof/320px/val//Beagle/n02088364_11040.JPEG
	0
	Beagle
	[1. 0. 0. 0. 0. 0. 0. 0. 0. 0.]
Entry #1:
	/home/juebrauer/data_jb/datasets/imagewoof/320px/val//Beagle/n02088364_3432.JPEG
	0
	Beagle
	[1. 0. 0. 0. 0. 0. 0. 0. 0. 0.]
Entry #2:
	/home/juebrauer/data_jb/datasets/imagewoof/320px/val//Beagle/n02088364_3602.JPEG
	0
	Beagle
	[1. 0. 0. 0. 0. 0. 0. 0. 0. 0.]
Model: "sequential"
_________________________________________________________________
Layer (type)                 Output Shape              Param #   
=================================================================
conv2d (Conv2D)              (None, 222, 222, 256)     7168      
_________________________________________________________________
max_pooling2d (MaxPooling2D) (None, 111, 111, 256)     0         
_________________________________________________________________
conv2d_1 (Conv2D)            (None, 109, 109, 256)     590080    
_________________________________________________________________
max_pooling2d_1 (MaxPooling2 (None, 54, 54, 256)       0         
_________________________________________________________________
conv2d_2 (Conv2D)            (None, 52, 52, 256)       590080    
_________________________________________________________________
max_pooling2d_2 (MaxPooling2 (None, 26, 26, 256)       0         
_________________________________________________________________
conv2d_3 (Conv2D)            (None, 24, 24, 256)       590080    
_________________________________________________________________
max_pooling2d_3 (MaxPooling2 (None, 12, 12, 256)       0         
_________________________________________________________________
conv2d_4 (Conv2D)            (None, 10, 10, 256)       590080    
_________________________________________________________________
max_pooling2d_4 (MaxPooling2 (None, 5, 5, 256)         0         
_________________________________________________________________
conv2d_5 (Conv2D)            (None, 3, 3, 256)         590080    
_________________________________________________________________
max_pooling2d_5 (MaxPooling2 (None, 1, 1, 256)         0         
_________________________________________________________________
flatten (Flatten)            (None, 256)               0         
_________________________________________________________________
fc1 (Dense)                  (None, 2048)              526336    
_________________________________________________________________
output (Dense)               (None, 10)                20490     
=================================================================
Total params: 3,504,394
Trainable params: 3,504,394
Non-trainable params: 0
_________________________________________________________________
filter_weights has shape: (3, 3, 3, 256)
bias_weights has shape: (256,)
filter_weights has type: <class 'numpy.ndarray'>
bias_weights has type: <class 'numpy.ndarray'>
Here are filter 0 weights:
…
