…
	/home/juebrauer/data_jb/datasets/imagewoof/320px/val//Shih-Tzu/ILSVRC2012_val_00029700.JPEG
	0
	Shih-Tzu
	[1. 0. 0. 0. 0. 0. 0. 0. 0. 0.]
Entry #1:
	/home/juebrauer/data_jb/datasets/imagewoof/320px/val//Shih-Tzu/n02086240_7562.JPEG
	0
	Shih-Tzu
	[1. 0. 0. 0. 0. 0. 0. 0. 0. 0.]
Entry #2:
	/home/juebrauer/data_jb/datasets/imagewoof/320px/val//Shih-Tzu/n02086240_5731.JPEG
	0
	Shih-Tzu
	[1. 0. 0. 0. 0. 0. 0. 0. 0. 0.]
Model: "sequential"
_________________________________________________________________
Layer (type)                 Output Shape              Param #   
=================================================================
conv2d (Conv2D)              (None, 222, 222, 32)      896       
_________________________________________________________________
max_pooling2d (MaxPooling2D) (None, 111, 111, 32)      0         
_________________________________________________________________
conv2d_1 (Conv2D)            (None, 109, 109, 64)      18496     
_________________________________________________________________
max_pooling2d_1 (MaxPooling2 (None, 54, 54, 64)        0         
_________________________________________________________________
conv2d_2 (Conv2D)            (None, 52, 52, 128)       73856     
_________________________________________________________________
max_pooling2d_2 (MaxPooling2 (None, 26, 26, 128)       0         
_________________________________________________________________
conv2d_3 (Conv2D)            (None, 24, 24, 256)       295168    
_________________________________________________________________
max_pooling2d_3 (MaxPooling2 (None, 12, 12, 256)       0         
_________________________________________________________________
conv2d_4 (Conv2D)            (None, 10, 10, 512)       1180160   
_________________________________________________________________
max_pooling2d_4 (MaxPooling2 (None, 5, 5, 512)         0         
_________________________________________________________________
conv2d_5 (Conv2D)            (None, 3, 3, 1024)        4719616   
_________________________________________________________________
max_pooling2d_5 (MaxPooling2 (None, 1, 1, 1024)        0         
_________________________________________________________________
flatten (Flatten)            (None, 1024)              0         
_________________________________________________________________
fc1 (Dense)                  (None, 2048)              2099200   
_________________________________________________________________
output (Dense)               (None, 10)                20490     
=================================================================
Total params: 8,407,882
Trainable params: 8,407,882
Non-trainable params: 0
_________________________________________________________________
Layers of the model BEFORE defining which to train:
conv2d: trainable=True
max_pooling2d: trainable=True
conv2d_1: trainable=True
max_pooling2d_1: trainable=True
conv2d_2: trainable=True
…
